…
/usr/local/Cellar/python3/3.6.3/Frameworks/Python.framework/Versions/3.6/lib/python3.6/site-packages/torch/nn/modules/container.py:92: UserWarning: Implicit dimension choice for log_softmax has been deprecated. Change the call to include dim=X as an argument.
  input = module(input)
[1,  2000] loss: 2.316
[1,  4000] loss: 2.306
[1,  6000] loss: 2.300
[1,  8000] loss: 2.291
[1, 10000] loss: 2.284
[1, 12000] loss: 2.279
^[f[2,  2000] loss: 2.271
[2,  4000] loss: 2.264
[2,  6000] loss: 2.258
[2,  8000] loss: 2.252
[2, 10000] loss: 2.246
[2, 12000] loss: 2.237
previous_units: 3645
Sequential(
  (conv_0): Conv2d(3, 4, kernel_size=(8, 8), stride=(1, 1), padding=(1, 1))
  (relu_0): ReLU()
  (flatten): Flatten()
  (fc_0): Linear(in_features=2916, out_features=196, bias=True)
  (dropout_0): Dropout(p=0.667209393568471)
  (sigm_0): Sigmoid()
  (classification_layer): Linear(in_features=196, out_features=10, bias=True)
  (sofmax): LogSoftmax()
) Sequential(
  (conv_0): Conv2d(3, 5, kernel_size=(8, 8), stride=(1, 1), padding=(1, 1))
  (relu_0): ReLU()
  (flatten): Flatten()
  (fc_0): Linear(in_features=3645, out_features=196, bias=True)
  (dropout_0): Dropout(p=0.667209393568471)
  (sigm_0): Sigmoid()
  (classification_layer): Linear(in_features=196, out_features=10, bias=True)
  (sofmax): LogSoftmax()
)
Accuracy of the network on the 10000 test images: 21 %
Accuracy of plane : 40 %
Accuracy of   car : 10 %
Accuracy of  bird :  5 %
Accuracy of   cat : 15 %
Accuracy of  deer :  6 %
Accuracy of   dog : 13 %
Accuracy of  frog : 45 %
Accuracy of horse :  7 %
Accuracy of  ship : 41 %
Accuracy of truck : 32 %
Accuracy of the network on the 10000 test images: 10 %
…
/usr/local/Cellar/python3/3.6.3/Frameworks/Python.framework/Versions/3.6/lib/python3.6/site-packages/torch/nn/modules/container.py:92: UserWarning: Implicit dimension choice for log_softmax has been deprecated. Change the call to include dim=X as an argument.
  input = module(input)
[1,  2000] loss: 2.024
[1,  4000] loss: 1.877
[1,  6000] loss: 1.821
[1,  8000] loss: 1.790
[1, 10000] loss: 1.774
[1, 12000] loss: 1.751
[2,  2000] loss: 1.722
[2,  4000] loss: 1.712
[2,  6000] loss: 1.730
[2,  8000] loss: 1.697
[2, 10000] loss: 1.698
[2, 12000] loss: 1.696
previous_units: 4205
Sequential(
  (conv_0): Conv2d(3, 4, kernel_size=(6, 6), stride=(1, 1), padding=(1, 1))
  (tanh_0): Tanh()
  (flatten): Flatten()
  (fc_0): Linear(in_features=3364, out_features=327, bias=True)
  (dropout_0): Dropout(p=0.39121718688057483)
  (classification_layer): Linear(in_features=327, out_features=10, bias=True)
  (sofmax): LogSoftmax()
) Sequential(
  (conv_0): Conv2d(3, 5, kernel_size=(6, 6), stride=(1, 1), padding=(1, 1))
  (tanh_0): Tanh()
  (flatten): Flatten()
  (fc_0): Linear(in_features=4205, out_features=327, bias=True)
  (dropout_0): Dropout(p=0.39121718688057483)
  (classification_layer): Linear(in_features=327, out_features=10, bias=True)
  (sofmax): LogSoftmax()
)
Accuracy of the network on the 10000 test images: 41 %
Accuracy of plane : 53 %
Accuracy of   car : 54 %
Accuracy of  bird : 23 %
Accuracy of   cat : 22 %
Accuracy of  deer : 29 %
Accuracy of   dog : 38 %
Accuracy of  frog : 52 %
Accuracy of horse : 46 %
Accuracy of  ship : 49 %
Accuracy of truck : 40 %
Accuracy of the network on the 10000 test images: 38 %
…
/usr/local/Cellar/python3/3.6.3/Frameworks/Python.framework/Versions/3.6/lib/python3.6/site-packages/torch/nn/modules/container.py:92: UserWarning: Implicit dimension choice for log_softmax has been deprecated. Change the call to include dim=X as an argument.
  input = module(input)
[1,  2000] loss: 1.798
[1,  4000] loss: 1.658
[1,  6000] loss: 1.560
[1,  8000] loss: 1.544
[1, 10000] loss: 1.518
[1, 12000] loss: 1.490
[2,  2000] loss: 1.393
[2,  4000] loss: 1.387
[2,  6000] loss: 1.417
[2,  8000] loss: 1.401
[2, 10000] loss: 1.419
[2, 12000] loss: 1.424
previous_units: 4500
Sequential(
  (conv_0): Conv2d(3, 4, kernel_size=(5, 5), stride=(1, 1), padding=(1, 1))
  (flatten): Flatten()
  (fc_0): Linear(in_features=3600, out_features=204, bias=True)
  (dropout_0): Dropout(p=0.047668292083812944)
  (relu_0): ReLU()
  (classification_layer): Linear(in_features=204, out_features=10, bias=True)
  (sofmax): LogSoftmax()
) Sequential(
  (conv_0): Conv2d(3, 5, kernel_size=(5, 5), stride=(1, 1), padding=(1, 1))
  (flatten): Flatten()
  (fc_0): Linear(in_features=4500, out_features=204, bias=True)
  (dropout_0): Dropout(p=0.047668292083812944)
  (relu_0): ReLU()
  (classification_layer): Linear(in_features=204, out_features=10, bias=True)
  (sofmax): LogSoftmax()
)
testing both nets, only first net trained
Accuracy of the network on the 10000 test images: 49 %
Accuracy of plane : 63 %
Accuracy of   car : 59 %
Accuracy of  bird : 42 %
Accuracy of   cat : 28 %
Accuracy of  deer : 39 %
Accuracy of   dog : 27 %
Accuracy of  frog : 63 %
Accuracy of horse : 58 %
Accuracy of  ship : 62 %
Accuracy of truck : 55 %
…
